data.pth (torch, 5591 bytes, 6 tensors)

l1.weight f4 [8, 59]
000000 6c 3a d2 3e e9 79 14 3f be f5 c9 3e 1b 57 19 be
       0.41060197 0.5799852 0.394453 -0.14974634
000010 00 4e 08 3f cb 96 2f 3e 0e 64 e3 3d 7c 3b 1e 3f
       0.5324402 0.17147367 0.11103068 0.61809516
000020 e9 a9 1c 3e ff b5 92 be 47 73 15 bf 93 c6 6c 3e
       0.1529919 -0.28654477 -0.58379024 0.23122625
000030 4a 19 aa 3e de 1a 18 3f a8 0f 25 bf 82 2f 5f bd
       0.3322242 0.59415996 -0.64477015 -0.054488666
000040 93 03 6d 3e 33 58 1a bf 55 42 5e bc 95 72 42 3e
       0.23145895 -0.6029083 -0.0135656195 0.18989022
000050 37 32 88 be 03 38 3d 3e d8 76 09 bf 78 4d 4e be
       -0.2660081 0.18478398 -0.53696966 -0.2014674
000060 c0 22 08 bf ee 8b c7 3e 14 71 5c bf b2 85 22 3e
       -0.53178024 0.38973945 -0.86110044 0.15871313
000070 52 fc e0 be 10 0d 47 3e ca 04 bd bd e5 11 d0 3e
       -0.43942505 0.19438577 -0.09229429 0.40638652
000080 a7 ff b8 3e c6 a2 fa 3e ee 02 fd be 57 0b 09 3f
       0.36132547 0.4895231 -0.49416298 0.5353293
000090 22 64 fc be 90 fc 95 3e ee 85 62 3f cb 9f 8e 3f
       -0.49295145 0.29294252 0.8848561 1.1142515
0000a0 30 bd cf be b1 46 23 be b0 06 de 3e cd 78 70 3f
       -0.40574026 -0.15944935 0.43364477 0.9393433
0000b0 62 c3 bf be 71 c7 c0 3e cc d7 26 3f eb 58 0a 3f
       -0.37453753 0.37652162 0.6517303 0.5404193
0000c0 cc 50 c9 3e 2f 31 9b 3e cf a9 b1 be b0 e0 5a bf
       0.39319456 0.30310962 -0.34699866 -0.85499096
0000d0 9e 5c 8e bf 11 40 0b 3f cf 37 1e 3f 39 d5 d7 be
       -1.1122015 0.5439463 0.6180391 -0.42154863
0000e0 2c 7f 20 3f 68 a6 81 3d f2 ae 29 3f 8c 9f 63 bd
       0.6269405 0.063305676 0.6628257 -0.055572078
0000f0 65 7e fe 3e 9b 69 59 bf ce 27 5d 3b aa ec 3e 3f
       0.49705806 -0.84926766 0.003374565 0.7457987
000100 e6 d4 19 3f 04 8b 01 be 3c 77 59 be 35 e9 f5 3e
       0.6009048 -0.12650687 -0.2123689 0.48029485
000110 56 1b 40 3f 4b 35 3b bf 5a 8f fd be f2 0e 64 be
       0.7504171 -0.73128194 -0.4952343 -0.22271326
000120 d8 0d d4 3e a0 5a 08 3c 8c dc 03 be 96 15 fb be
       0.41416812 0.008322388 -0.128771 -0.49039906
000130 e1 37 31 bf 21 56 8e 3e e5 22 38 3f 99 6e 2a 3f
       -0.6922589 0.27800086 0.71928245 0.6657501
000140 3e 0b 38 3f 41 8f 5f be 24 af fe be b4 26 6a 3e
       0.71892154 -0.21831991 -0.49742997 0.22866327
000150 fd 81 8a bd b1 9e 82 bf 8a 75 22 3e 99 64 ed bd
       -0.067630745 -1.0204679 0.1586515 -0.11591453
000160 08 35 eb bc f7 99 b9 3e 45 1a e1 3e f0 19 0c bf
       -0.02871181 0.36250278 0.43965355 -0.5472708
000170 56 e5 3b 3e 66 86 9a be 2c 76 59 3e 38 73 aa be
       0.18349203 -0.30180663 0.21236485 -0.3329103
000180 c5 31 a6 be b8 ea 12 3d 4e 58 19 3f d3 a6 c3 be
       -0.32459846 0.035868376 0.5990037 -0.38213214
000190 a0 f5 92 3e e4 8b 16 3f b4 25 2d bf 5d 5f 9d be
       0.28703022 0.58807206 -0.67635655 -0.3073682
0001a0 5e 4e d2 be 79 be aa 3e 69 f3 3f bf bc f0 b4 bd
       -0.41075414 0.33348444 -0.7498079 -0.08834979
0001b0 ab 80 05 3f 7c 0e df 3d 86 08 aa bd 01 21 7e 3f
       0.52149457 0.108914346 -0.08302407 0.9926911
0001c0 54 51 e9 3c 44 46 b1 3e 3f 85 85 bd 2f 76 14 3f
       0.028481163 0.3462392 -0.06519555 0.57992834
0001d0 bf b6 f4 3e 3b 9b 12 3f 01 b3 eb bd 39 56 f2 3e
       0.47795674 0.5726811 -0.11508752 0.47331408
0001e0 8f 2a b4 bd 33 e2 0c 3f 1f 5e 45 3f 25 ff 02 3f
       -0.0879718 0.5503265 0.7709674 0.5117057
0001f0 a5 96 89 be 08 bf 4f 3f 9c 2c ca 3e 1e 88 b7 be
       -0.26872745 0.81150866 0.3948716 -0.35846037
000200 59 a2 12 bf 35 29 39 be 61 dd fb bd 22 f3 51 3e
       -0.5727897 -0.18082125 -0.12298084 0.20502904
000210 69 e7 e6 3c 0e a7 02 bf dc a2 b2 bd b0 9d 19 3f
       0.028186517 -0.51036155 -0.08722469 0.6000624
000220 cb 59 25 be 82 00 33 3f b0 c9 c7 be 99 e6 20 3f
       -0.16147535 0.6992265 -0.39021063 0.62851864
000230 ff 35 83 3f 57 bb 19 bf af 1e 48 3f ad 25 4a be
       1.0250853 -0.6005148 0.7817182 -0.19740935
000240 b3 94 ee 3e e0 69 e5 bc ce cf 75 3e 73 1a 7a 3e
       0.46597824 -0.028004587 0.24005052 0.24424152
000250 59 10 68 be 7d bb 3c 3e 2b e3 5c be 19 aa a0 bd
       -0.22662486 0.18430896 -0.21571033 -0.078449436
000260 08 e3 4f bd 31 ca 15 3f 42 aa 9e be 87 c7 3a bd
       -0.050753623 0.58511645 -0.3098927 -0.04560044
000270 46 36 db be f1 bd 4b 3f 42 75 76 bd c2 69 98 be
       -0.42814845 0.795867 -0.06017042 -0.29768187
000280 ac 71 90 bd ae fa 7f be f6 78 ba be 3a 30 8f bd
       -0.07052931 -0.2499797 -0.3642041 -0.0699162
000290 db 09 e3 3e 36 a5 2d bf d4 e4 18 3d f8 39 d7 3e
       0.44343457 -0.67830217 0.037327603 0.42036414
0002a0 04 93 0f 3f 66 42 1b 3e b2 79 da 3e 36 88 7e be
       0.56083703 0.15162048 0.4267097 -0.24856648
0002b0 b7 52 a0 bd 04 f2 57 3e e6 c9 7c bd be 1f 9c 3e
       -0.078282766 0.21088415 -0.061715983 0.30492967
0002c0 27 71 91 3e 34 7d e2 be c6 23 8f 3e f7 10 7d 3f
       0.2840664 -0.44236147 0.2795698 0.9885401
0002d0 24 48 16 3f a4 c5 9f 3c 41 1d 53 3d 37 37 a7 bc
       0.5870383 0.019503422 0.05154157 -0.02041207
0002e0 8c 7a 33 3f f0 17 04 3e 83 f8 a7 3e 71 e4 7a 3e
       0.70108867 0.12899756 0.32806787 0.24501206
0002f0 40 f0 1a 3f d0 25 47 3f 2a 32 8d 3e 5c 59 e6 be
       0.6052284 0.7779207 0.27577335 -0.4499005
000300 e4 57 34 be 67 bf 1a 3f 62 93 51 3f 70 4c 84 3f
       -0.17611653 0.60448307 0.81865513 1.0335827
000310 ea 74 50 3e a0 ba fc 3e e0 38 aa bd 29 1e 20 3f
       0.20357099 0.49361134 -0.08311629 0.6254602
000320 47 ea 0d 3e f2 8c 2c 3f bd 2b bd be 09 e3 53 3f
       0.13858901 0.67402565 -0.36947432 0.82768303
000330 01 17 ca 3e 40 23 69 3c c6 10 a9 3e 23 43 64 3e
       0.39470676 0.014229596 0.3302061 0.22291236
000340 63 79 df 3e 4d b2 56 3f 3f fd 92 3e 83 22 98 3e
       0.43647298 0.83865815 0.28708836 0.2971383
000350 1c 90 65 3f 3c 89 92 3e 29 68 10 3f b1 f9 dd be
       0.8967302 0.28620327 0.56408936 -0.43354562
000360 c3 52 3c 3f f1 29 1e 3e a3 4e 24 3e c3 02 ee 3e
       0.73563784 0.15445687 0.16045623 0.46486482
000370 ad ec ac be 20 1c df 3e 4e d0 3c 3f 27 84 8f 3e
       -0.3377432 0.43576145 0.7375535 0.28030512
000380 65 8b 5a bf 09 99 02 bf 42 52 31 3e b3 95 30 3f
       -0.8536895 -0.51014763 0.17316535 0.6897842
000390 38 95 eb be de 0a 8e 3f b4 08 1d be 9d d6 10 bf
       -0.46012282 1.1097066 -0.15335351 -0.56577474
0003a0 05 f5 92 3d 19 2c be 3e 1e a1 89 3e 67 89 81 3e
       0.0717564 0.3714302 0.26880735 0.25300142
0003b0 16 09 14 3f 65 d5 2a bb 52 bd b3 be 01 17 24 be
       0.57826364 -0.0026067134 -0.35105377 -0.160244
0003c0 8a 9b 03 bf e0 8d 13 bf 2b 56 c7 bd c4 a8 4d be
       -0.5140921 -0.5763836 -0.09733232 -0.2008391
0003d0 48 22 67 be e4 b8 05 3f 8f 0d 5f 3e a3 9b 9d be
       -0.22571671 0.52235246 0.21782516 -0.30782804
0003e0 f3 da 15 be fe 67 5b 3e 01 52 27 be 5a 6d d9 bc
       -0.14634304 0.21426389 -0.16339876 -0.0265414
0003f0 58 7d c7 bd d6 8c ab be a8 d1 d4 be b3 8c a6 be
       -0.09740704 -0.33505887 -0.41566205 -0.3252922

l1.bias f4 [8]
000000 31 74 09 3f 85 fa 23 3f 04 a4 2d 3f ae 87 5a 3f
       0.5369292 0.6405414 0.67828393 0.8536328
000010 b1 fe 28 3f 68 0d fe 3e 3d 2b 69 3f d6 44 16 3f
       0.6601363 0.49619603 0.910816 0.58698785

l2.weight f4 [8, 8]
000000 e9 42 13 3e 36 6c 41 bf a9 26 64 be f8 92 bf bf
       0.14380993 -0.7555574 -0.22280373 -1.4966726
000010 47 89 8c 3f 15 d1 b5 3e 04 44 f6 3e 11 1f 43 3f
       1.0979394 0.3551108 0.48098767 0.7621928
000020 f1 d6 a0 bf 04 54 d2 3d 17 dc b2 be 9a b6 9b 3f
       -1.2565595 0.10269931 -0.3493354 1.21651
000030 1d b7 54 be 9a db 57 3f c0 76 af 3f 4c 09 1a bf
       -0.20772977 0.8431946 1.3708115 -0.60170436
000040 0b 37 17 3f 5a cb d4 3e 0f 24 0d 3f e9 ef 66 bf
       0.59068364 0.41561395 0.55133146 -0.90209824
000050 b6 7d 82 bf ae f2 ae be d6 1c 80 3f f5 18 9e 3f
       -1.0194614 -0.34169525 1.00088 1.2351366
000060 87 00 ab 3f f0 e0 34 bf 6f e5 1e bf f6 3b cc bd
       1.3359536 -0.7065573 -0.6206884 -0.09972374
000070 78 77 90 3e a0 67 be 3f 3b 97 49 3f 26 af 18 3e
       0.28216147 1.4875374 0.78746384 0.14910564
000080 e1 5b 60 3f 4a 54 a1 3f 34 2b ae 3f f0 78 8b 3f
       0.87640196 1.2603848 1.3606935 1.0896282
000090 4c 46 6d be 6b f3 97 bf d5 a8 4b 3f 79 a8 88 be
       -0.23171347 -1.187116 0.7955449 -0.26691034
0000a0 4b cf 3e bf e0 ae a4 3e 1b ca 56 3f d6 07 52 3f
       -0.74535054 0.3216467 0.8390214 0.82043207
0000b0 2b e0 bf bf 82 bf 7d 3e f8 f9 a7 3e 2b 72 8e 3f
       -1.4990286 0.24780086 0.328079 1.1128591
0000c0 7c 1c d2 3e ba 24 a2 bf e5 ba 29 3f 16 4d 07 3f
       0.41037357 -1.2667458 0.66300803 0.52852
0000d0 b6 22 54 bf 33 76 1b bf 27 89 9b 3f ad 6b 06 bf
       -0.82865465 -0.6072723 1.215123 -0.5250805
0000e0 37 b7 a9 3e 49 21 a8 be c0 ea 5d bf b0 10 0c 3b
       0.33147594 -0.32837895 -0.86686325 0.0021372251
0000f0 c5 08 4c be 5b 49 95 3f 5c 47 1e 3f 9b 50 61 3f
       -0.1992522 1.1663011 0.61827636 0.8801362

l2.bias f4 [8]
000000 0d a0 15 3f 60 a8 3a 3f a8 72 06 bc 06 7a 68 3e
       0.58447343 0.7291317 -0.008206047 0.22702798
000010 81 b9 bf 3e 43 84 83 be 1a 93 cf 3e 64 1a 99 bc
       0.37446216 -0.25686845 0.40541917 -0.018689342

l3.weight f4 [13, 8]
000000 bf 73 94 bf 89 6e d2 bf 78 98 ee 3e 8d fa eb bf
       -1.1597823 -1.6439983 0.466007 -1.8435837
000010 77 f6 15 3f 2c b4 0c 3f e6 8c 96 bf af 12 32 bf
       0.585792 0.5496242 -1.1761749 -0.6955976
000020 f3 71 57 bf 5c 6c 28 3f 3e 9c 8f bf 23 f5 2a 3e
       -0.8415825 0.65790343 -1.1219556 0.16695075
000030 48 3e b6 bf 4a 5f 80 3e c9 d6 43 bf 51 66 30 3f
       -1.4237757 0.250727 -0.7649961 0.6890612
000040 d8 20 81 bf 74 02 8b 3f ae 80 b9 bf 41 df ec be
       -1.0088148 1.0860124 -1.4492395 -0.4626408
000050 bb f1 60 3f f7 37 d7 bf 8f 77 db bf f5 0f 13 bf
       0.8786885 -1.6813954 -1.7145861 -0.57446223
000060 b9 dd e3 be 5c f4 d5 be f2 5e c1 3e 59 b5 de 3e
       -0.44505098 -0.41787994 0.3776775 0.43497732
000070 9a 34 30 bf 14 fe 11 c0 b4 79 55 3e 0b db 19 3e
       -0.68830264 -2.2811327 0.20847207 0.15024965
000080 5a 93 23 3f b3 9e 09 3e fe cd aa 3e 79 e5 3e bf
       0.63896716 0.13439445 0.33360285 -0.745689
000090 ea 67 6c bf 96 7a ae be 4c 81 d8 3e 6f 05 dd be
       -0.9234606 -0.340779 0.42286146 -0.43168208
0000a0 da 6e e8 bf c5 11 be be af a1 15 3d 84 6d 33 3d
       -1.8158829 -0.37122932 0.036531147 0.043805614
0000b0 8d 34 0d 3e 98 b0 b2 bf 96 c6 4f 3f 44 c6 ce be
       0.13789578 -1.3960142 0.81162393 -0.4038564
0000c0 79 c7 81 bf e9 30 48 3e e5 98 9f be be 2b b9 bf
       -1.0138999 0.19549908 -0.31171337 -1.4466474
0000d0 bb 19 70 3e 28 f5 ed 3e 6d 5d 33 3f bf 06 8f bf
       0.23447315 0.46476102 0.7006443 -1.1173934
0000e0 87 9b 18 bf 3f 7a b8 bf 0e 6e 2e 3f 64 7a bf 3d
       -0.59612316 -1.4412307 0.6813668 0.09349516
0000f0 a8 d9 97 be 02 c2 11 bf b9 f8 d2 bf 81 12 df 3e
       -0.29658246 -0.5693666 -1.6482154 0.43568805
000100 54 e6 1e bf b9 18 d3 be 35 ba e5 be f9 f9 91 bf
       -0.620702 -0.412298 -0.44868627 -1.1404411
000110 76 0a 6c bf 5d 5c 45 bf 8e 8d 02 bf 26 cf 4f bf
       -0.9220346 -0.7709406 -0.50997245 -0.8117546
000120 f9 18 a7 bf cf a2 a9 bf cf 53 80 be 2a 90 1f 3c
       -1.3054496 -1.325281 -0.2506394 0.009738961
000130 ee ae 68 3f cc 8f 3e bf 58 10 ff be 59 6f ac bf
       0.9089192 -0.74438167 -0.49817157 -1.3471481
000140 9b ee 05 c0 16 bc 68 3d 05 d9 7c 3e c2 ef c7 be
       -2.0926883 0.056819998 0.24692161 -0.39050108
000150 2d c2 65 be 2e 85 0a 3f 0d 9b db bf 0c 6a ad 3c
       -0.22437353 0.54109466 -1.7156693 0.021168731
000160 2b 35 a3 bf a9 57 f9 3e cb 3b be bf f9 5a 02 be
       -1.27506 0.48699692 -1.4861997 -0.12730016
000170 69 8e bd be 2f 27 97 bd 74 dc 28 3f 83 57 0d be
       -0.37022713 -0.073805206 0.65961385 -0.13802914
000180 3a bd 41 3f f2 a5 3b bf d2 a1 c9 bf d9 83 3a 3f
       0.7567936 -0.7330009 -1.5752509 0.72857434
000190 05 1a aa bf ec f4 a3 bf 6b 1f a9 bf d4 aa e2 3e
       -1.328919 -1.2809119 -1.3212713 0.44270957

l3.bias f4 [13]
000000 d1 aa 3b be ae 40 68 be 74 9f 91 3e b4 d6 21 3e
       -0.1832688 -0.22680923 0.28441966 0.15804559
000010 9c 89 8f be e7 29 f9 be 03 ac 25 3e ce 81 d7 ba
       -0.28034675 -0.4866478 0.16178899 -0.0016441883
000020 3c 88 18 bf 99 40 d8 3d 73 b9 c7 bd 84 84 7b be
       -0.5958288 0.10559196 -0.097521685 -0.2456227
000030 4e 4f 56 3f
       0.8371476
